checkpoints/ogbn-arxiv_weights.pth (torch, 528415 bytes, 4 tensors)

MLP.0.weight f4 [512, 128]
00000000: 1af6 73bc ca0d 9fbd 5d45 083d 410a fcbc
00000010: c5ab 67be eaa5 12bc 998f afbd 9940 aabd
00000020: 1a31 44bc c9cf 9ebd 6137 153d 1070 cbbd
00000030: 272a 3d3e a131 85be 0ffe 143c 8f16 a8bd
00000040: 97f2 1cbe 133d a23d 165c 1f3e 253c cebd
00000050: 656a 2dbd 63a3 0b3e 4a22 03bc 3bd9 563d
00000060: d78e bf3d 55ba 8cbc 02e9 ba3c 8342 033d
00000070: ee96 a93b 60ad 173e d100 aebd 186e c9bd
00000080: be60 a03d 462f a8bd 8729 febd c80d b2bd
00000090: 451d f1bd 1c2c 22bd 77a0 203e f0ff 5538
000000a0: c740 eabb 457c 0f3e a119 103d 9165 acbc
000000b0: b9f7 45bd 0a2b 373d 58ed 013d ad8e aebd
000000c0: 29a6 a73b 827b 1d3e 3def 41bd 0622 993d
000000d0: b182 213e 41e9 29bd b1ac c8bc 3e0a fa3d
000000e0: f28c 283e 43cc a5bd 405c 1c3e a634 0b3e
000000f0: f107 60bc 7112 313d 1287 7a3c 8840 643d
00000100: 46fb e9bd 0faf 61bd c912 8d3c 663b 733d
00000110: 21bf 25ba a604 133d 4889 59bb dbd6 a53d
00000120: 7f2d c63d c6e4 cebd 6d07 64bd e4e0 efbd
00000130: 2807 7c3d dc58 cd3d 4108 063d dfb3 24bd
00000140: c606 1cbe b41b 613d c51b 82bc 486a f63c
00000150: 3896 023e 8594 993d 1947 c3bd ccfe 2d3e
00000160: 9b6b 843d 54fd c13d a5ea d93d fff9 423e
00000170: bf91 c63d 940a 2ebe b485 213e cd81 af3c
00000180: 6aa0 dd3d cbf1 d83d eb25 00bd 7489 56bd
00000190: c94f 15be bb91 363d dad2 70bd 766b 9e3d
000001a0: e5dc 8d3d 905d cc3d 9303 34be 0e14 2e3d
000001b0: db9d 2a3d ee17 e23d 35ac 5ebd f69b 013d
000001c0: 2088 463e e4e7 413d cf1c cb3d d51d dd3d
000001d0: afb8 cc3d 1e84 83bd a834 8ebd 99be bdbd
000001e0: 1f7d 6d3d 0ed2 ee3d 87af be3d 3f76 52bd
000001f0: 4987 9fbd 3996 363e 98e0 c63d 9391 2a3d
00000200: 570e 7f39 8cd0 b738 1733 9ab9 19c4 1bb9
00000210: 48dd 373a d973 3638 7dd9 a13a 5c61 ddb9
00000220: 01a2 2eb9 de49 f438 f381 6939 c11b fa3a
00000230: 179f 0bba 7917 adb9 d0af a339 f599 3c39
00000240: 7441 acb9 12e0 33bc b6af cfb9 7191 bfb8
00000250: 599c f2ba ce77 083a a8bd d639 8d56 0dba
00000260: ac64 08ba 8206 a03a 0d00 c3b9 b082 00bb
00000270: a1bf dcb9 2717 9539 37bc 81b9 5c17 1b39
00000280: 31c7 1238 6e9f 26b9 b4d2 6738 8223 1e39
00000290: 7374 3339 446e 2eb9 7fae d9b9 c470 ddb9
000002a0: d59f 303a 9f28 b1b9 c8e2 e8b9 6e2d 8ab9
000002b0: 5481 073a 8c1b 3bb9 33a9 9a39 e2a2 76b9
000002c0: 51b6 4cba 9754 c239 23ac 27ba edb8 9139
000002d0: 3c16 e1b9 affc e438 be6b 1eba 6829 b4b9
000002e0: 8589 afb8 34f0 acb9 642f 8939 a10d 11ba
000002f0: 7592 043b 1bab 7bb9 11b3 5439 0f27 edb9
00000300: 672d b839 68d4 df3a cbbe f039 f49f 9038
00000310: 979b 283a 6253 4a3a daf5 5eba 0bc1 d3b8
00000320: 7fca 79b8 e048 93ba 33c3 7039 ae5f c4b9
00000330: a8a7 95ba eab0 32ba 9ed8 24ba ed20 223a
00000340: d22e 1e39 8573 ceb8 0643 91bc 869b b8b9
00000350: 6679 d0b9 8963 c939 4fb5 daba 822b c1b9
00000360: 7a34 9539 c5b0 0638 2c0d d93a 19ac fab9
00000370: 10ef ffb9 249d 88b9 dcf5 9ab9 7066 8439
00000380: 6a3f 8c3a 8e16 23b9 02af 32ba 37fb 0cba
00000390: d3f6 e8b9 4faf 923b 6911 623a 8a93 99ba
000003a0: 7c58 9039 aac4 4c3a 8c04 2f39 1dd1 6b39
000003b0: 45d2 bd39 98f6 3f38 700d aaba e0a5 0ab9
000003c0: 63e3 22b9 c07c 28b9 f2d0 b339 c41a 43b9
000003d0: 2dcd 8b39 bcb5 2039 144c bfb8 c125 58b9
000003e0: 0cde 7c38 7059 b039 e031 c838 b9f3 cd39
000003f0: 67ca 66ba e9e1 e3b9 01ae 6638 1a69 a939
-0.014890218 -0.07766302 0.033269275 -0.030766608 -0.22624119 -0.00895069 -0.08572311 -0.08313102
-0.011974597 -0.077544756 0.036429767 -0.099334836 0.18473111 -0.26014426 0.009093775 -0.08207428
-0.15326916 0.07921805 0.15562472 -0.100700654 -0.042337794 0.13636546 -0.008003781 0.05245326
0.093534164 -0.017178694 0.022816185 0.032045852 0.005175463 0.14812231 -0.084962495 -0.09835452
0.07830952 -0.08212142 -0.124102645 -0.08694035 -0.11773161 -0.039592847 0.15686212 5.1021518e-05
-0.0071488353 0.14012249 0.03518069 -0.021044524 -0.04833195 0.04471878 0.03172049 -0.08523307
0.0051162434 0.15379146 -0.047347296 0.074771926 0.15772511 -0.041482214 -0.024496408 0.12208985
0.16460016 -0.080956005 0.15269566 0.13594303 -0.013673768 0.043230478 0.015290992 0.055725604
-0.1142488 -0.05509859 0.017220872 0.05938282 -0.0006322731 0.035893105 -0.0033193398 0.08097621
0.096766464 -0.10102229 -0.055671144 -0.11712816 0.061530262 0.10026714 0.032722715 -0.0402106
-0.15236959 0.05495806 -0.015882382 0.030079976 0.12752616 0.07499031 -0.09535045 0.16991729
0.064658366 0.09472147 0.10640458 0.19040678 0.096957676 -0.16996223 0.1577366 0.021424199
0.10821612 0.10592993 -0.03128616 -0.05237718 -0.14581217 0.044572573 -0.058794834 0.0773534
0.06926898 0.09978783 -0.17579488 0.042499594 0.04165445 0.110397205 -0.05436345 0.031642877
0.19387865 0.04734029 0.09917604 0.10796706 0.09996163 -0.06421684 -0.06943637 -0.09264869
0.057980653 0.116611585 0.09310823 -0.0513823 -0.077894755 0.17830743 0.097108066 0.041642737
0.00024324037 8.764965e-05 -0.00029411234 -0.00014855004 0.00070138695 4.3500073e-05 0.0012348142 -0.00042224943
-0.00016654284 0.000116485855 0.00022269021 0.0019081758 -0.00053261354 -0.0003301462 0.00031220773 0.0001798643
-0.00032855163 -0.0109787155 -0.00039613032 -9.13468e-05 -0.001850973 0.00052058406 0.00040958566 -0.000539162
-0.00052029896 0.0012208971 -0.00037193336 -0.0019609146 -0.00042104445 0.00028436744 -0.00024745028 0.00014790654
3.4994624e-05 -0.00015890386 5.5270924e-05 0.00015081282 0.00017114151 -0.0001663501 -0.00041519475 -0.00042236422
0.0006737684 -0.00033790336 -0.00044419453 -0.0002635526 0.00051691127 -0.00017843972 0.00029499232 -0.00023521067
-0.00078091497 0.00037065588 -0.0006396195 0.00027794336 -0.0004293191 0.00010918953 -0.00060432765 -0.00034363125
-8.370265e-05 -0.00032985362 0.00026165985 -0.0005533342 0.0020228897 -0.00024000967 0.00020284603 -0.00045233264
0.00035129042 0.0017076852 0.0004591852 6.896249e-05 0.0006431876 0.00077181135 -0.00085052627 -0.00010097221
-5.9554815e-05 -0.0011236928 0.00022960901 -0.0003745532 -0.0011417763 -0.00068165234 -0.0006288382 0.0006184716
0.00015085496 -9.844363e-05 -0.017732155 -0.0003521109 -0.000397633 0.00038411867 -0.0016686114 -0.00036844244
0.00028458593 3.211272e-05 0.0016559712 -0.0004781194 -0.00048815506 -0.0002605702 -0.00029556348 0.00025253324
0.0010700051 -0.00015553294 -0.00068162393 -0.000537801 -0.00044434387 0.004476465 0.000862381 -0.0011716944
0.00027531746 0.00078112877 0.00016690994 0.00022489247 0.00036205552 4.5767607e-05 -0.0012973975 -0.00013222499
-0.00015534232 -0.00016068202 0.00034297217 -0.0001860662 0.00026665014 0.0001532649 -9.1217604e-05 -0.0002061343
6.028828e-05 0.00033635972 9.546033e-05 0.00039282235 -0.0008803964 -0.0004346513 5.4998327e-05 0.000323125

MLP.0.bias f4 [512]
00000000: d2b7 2a3d 06ed 27bd 6aea 6a3d 6300 d83c
00000010: 6447 783d b7bc e5bd 7284 c23d bf41 713d
00000020: 2edc c03c 1465 b63d 28dc 87bc 9e16 263d
00000030: 9305 713d 505c 88bd d28e 76bc 840d 213d
00000040: f892 df3c 8dec acbd 8f13 873d fb54 68bd
00000050: b9ea 1c3d a32b a33d 3a3a 10be 5184 a9bd
00000060: 4372 333d 08a3 f63c e61b 733d 2336 35bc
00000070: e74b ed3a 9d94 5e3d 188e 9fbd caf2 e4bd
00000080: f892 df39 1895 5e3d b6cc c9bd cd05 9f3d
00000090: f5b7 7b3d 422f 60bd ab76 73bc 14ec ef3c
000000a0: e5d5 2d3d b0d3 85bd 1289 06be 1841 a13d
000000b0: 7dfc 3d3d fb78 783d 28ed 8b3d e788 4b3d
000000c0: abed c63d 4975 883d c44c 0fbc 1359 923c
000000d0: c559 873d e5de 15bd b888 713d d7db c5bb
000000e0: 4c58 793d 3a27 793d 0ffe 8b3d 0125 e03d
000000f0: 5305 4a3d acca d3bc 2f7e a5bd 33e0 6fbd
00000100: 0660 5fbd 93a6 083d c70c bcbd d8d4 51bc
00000110: 3c38 963d 402f ec3a ff9e bfbc fac2 0b3e
00000120: dfa1 783d e404 953d f987 a23d e076 de3b
00000130: 79d8 663d de14 b1bd b03e 4abd 0bce b0bc
00000140: ea45 c6bb 59ef 0abe c841 583d 7a08 803d
00000150: 64e0 093d c315 a73d 44c3 813d 6795 e53c
00000160: 9bf2 1d3d abe1 9a3d f49a 173d 04c2 533c
00000170: 86e9 9bbc fd53 afbd 60dc 08bd 7058 a03d
00000180: bc92 403d a644 d33c 6f41 ab3d 325c 933d
00000190: 8a32 923d b1f4 b1bd 9dd2 813d 25f7 903d
000001a0: 55ee 3e3d 1a8c 483d 79df 903d 8e68 ce3c
000001b0: 23d7 d13d 4514 583d 6f59 213d df83 703d
000001c0: 15ed d8bc a711 ee3c f509 a73d 9ffe 133d
000001d0: 0551 b13c 9011 843d 808f 7abc 93a7 973d
000001e0: 099e febd 11fe 253d f789 5d3d c048 62bd
000001f0: a723 ab3d 2c2a 613d 4753 ba3d 18a1 503d
00000200: 2c3f edbd 0659 833d 5e5c 8d3d 6310 bc3d
00000210: 6e40 993a c357 543d 85b3 d13c 0116 f2bd
00000220: 7bf2 553d 726a 983d fe57 7c3d c08c 653c
00000230: 9937 803d da83 3e3d 1c20 8ebd 482b 263d
00000240: 4c6a 643d 2209 5ebd 8487 c33d a3f6 5b3d
00000250: d986 443c 1363 3a3d c2fb 5ebd 4b57 193d
00000260: 67b4 3b3e 8a37 813d 6ff2 dcbc f2e0 e1bd
00000270: e3eb b2bd 95c9 313d bb21 a33d fd10 8b3d
00000280: 3e71 0ebd 484b 2c3d 3f7e 993d 9792 1f3d
00000290: 290c 51bd 587b 903d c249 443c 65f8 f13c
000002a0: 9050 7c3d 19c2 b13d 6155 a73c a730 3ebd
000002b0: 317c 44bb 6fe7 713d 7ebe be3c f13a 583d
000002c0: 8aba 373d 6703 a33d 6937 033e 5289 11bc
000002d0: 5d26 973d 2e46 6d3d c6bc 55bc bc05 f73d
000002e0: ac1f a7bc a849 3e3d 5785 37bd d977 113c
000002f0: 9bbc 5fbd 7ed1 423d 79c9 27bc 8b26 b53d
00000300: 8043 91bd 5045 823d b526 993d 3184 083d
00000310: 94c5 5e3d bb03 573d a013 f93b b64a 2c3d
00000320: d99a 583d 24b8 3e3d 80c3 3f3d ce5a 97bc
00000330: 989a 5e3d 01cd d23c 4653 9f3d c96c 713d
00000340: b9d4 533b 4bdf 7a3d 25ad 9a3c 9c7b 7238
00000350: 9786 0f3d 134d 213d ec2c 803b d05c f83c
00000360: b408 c0bd 759a 083d a25d 7c3d 0e52 a13d
00000370: 8908 2a3d 2ae9 923d ae53 7c3d 6220 ae3c
00000380: 18f3 92bd 3c8e 77bd 5911 003d 250c 133e
00000390: 5f6d ad3d 2be3 5c3d 7b6d 8c3d 0dd1 393d
000003a0: bb42 5bbd b40c e53d 518b 2e3d f0d0 d4bd
000003b0: 6fea 1ebc b591 40bd 892c 9d3d 1db3 2c3d
000003c0: 1dd8 d93c ae97 a23c 95ed 633d d8be 8b3d
000003d0: 02fd 293d 3c23 8c3d bd88 eabc e439 eabd
000003e0: d1fc a63d 7b07 4dbd 955d 523d 8daf d93c
000003f0: f7cc 893d a4c9 14bd 97ad 70bd 3980 4ebd
0.04167921 -0.040997528 0.05735246 0.026367372 0.06061496 -0.11217635 0.09497918 0.05890059
0.02354249 0.08905998 -0.01658447 0.040548913 0.058843207 -0.06658232 -0.015048699 0.03931953
0.02729176 -0.08443556 0.065955274 -0.05672167 0.038309786 0.079673074 -0.14084712 -0.082771905
0.04381014 0.030107036 0.059352778 -0.0110602705 0.0018104286 0.054340947 -0.07790774 -0.11179121
0.00042643375 0.054341406 -0.09853499 0.07764778 0.061454732 -0.05473257 -0.014859836 0.029287376
0.042440314 -0.06534517 -0.13138226 0.07873744 0.04638337 0.06066225 0.06832343 0.049691107
0.097133 0.06662995 -0.00874633 0.01786474 0.06608919 -0.036589522 0.058968276 -0.00603817
0.060875222 0.060828425 0.06835567 0.10944558 0.049321484 -0.025853477 -0.08080708 -0.058563422
-0.054534934 0.033361983 -0.091821246 -0.012807094 0.073349446 0.0018019453 -0.023391245 0.13648596
0.060701247 0.072763234 0.07936091 0.0067890733 0.05635879 -0.08646558 -0.04937619 -0.021582624
-0.006050815 -0.13567866 0.05279711 0.06251617 0.03366126 0.081584476 0.06336072 0.028025342
0.038561445 0.07562574 0.03701301 0.012924675 -0.019032251 -0.08560941 -0.03341329 0.07829368
0.047014937 0.02578957 0.0836209 0.07195319 0.07138546 -0.08689249 0.063389994 0.07078389
0.04661401 0.048961736 0.07073874 0.02519634 0.10246112 0.052753706 0.03939193 0.058719512
-0.026480237 0.029061152 0.08156196 0.036131497 0.021645078 0.06448662 -0.015293002 0.07405009
-0.124324866 0.0405255 0.05408665 -0.05524516 0.083564095 0.05497186 0.09097915 0.05093488
-0.11584315 0.06413464 0.06902383 0.09182813 0.0011692175 0.05184151 0.025598297 -0.11820603
0.0522332 0.07442178 0.061607353 0.014010608 0.062606044 0.046512462 -0.06939718 0.04056862
0.055765435 -0.05420793 0.09547332 0.053702008 0.011995041 0.04550464 -0.054439314 0.037436765
0.18330537 0.06309421 -0.02697107 -0.11029233 -0.08736398 0.043405134 0.07965418 0.0679035
-0.034775965 0.04206398 0.07494783 0.03895816 -0.051036987 0.07054776 0.011980476 0.029537389
0.061600268 0.08679599 0.020426454 -0.046433117 -0.002998125 0.059058603 0.023284193 0.052790586
0.044855632 0.07959633 0.12814106 -0.008882837 0.07380364 0.057928257 -0.013045495 0.120616406
-0.020400845 0.046456963 -0.044804897 0.008878672 -0.054623228 0.04756307 -0.010240906 0.08845242
-0.07092953 0.063608766 0.07478086 0.033329193 0.054387644 0.052493792 0.0076012164 0.042063437
0.05288205 0.04656233 0.046817303 -0.018475916 0.05434665 0.02573252 0.07779555 0.058941636
0.0032322838 0.061248105 0.01888139 5.7812416e-05 0.035040464 0.039380144 0.003911605 0.030317694
-0.0937666 0.033350427 0.061612733 0.07876979 0.041512046 0.07173379 0.06160324 0.021255676
-0.07175273 -0.06043838 0.031266544 0.14360102 0.084681265 0.05392758 0.06856819 0.045365382
-0.053530436 0.111840636 0.04261333 -0.10391414 -0.009699448 -0.047013957 0.0767451 0.042163003
0.026592309 0.019847717 0.055646498 0.0682351 0.041501053 0.06842658 -0.028629655 -0.11436823
0.0815369 -0.050055962 0.051358778 0.026572967 0.06728547 -0.036325112 -0.0587593 -0.05041525

MLP.2.weight f4 [128, 512]
00000000: c0ce a33d 482c 7c39 e923 2fbe d522 72bd
00000010: a9b3 f73d 45fe e63d ff50 9d3d 891b 30bc
00000020: afdd e53d 6432 96bb 6dba ab3c 4b40 7a3d
00000030: ae3a 55bd 8ab0 bf3c 239d eebb cc1d b8bd
00000040: df9f 113e edb5 a2bc 4077 0e3e c158 d93a
00000050: 1b71 d2bd fa02 e83d 19ae 63bb 8bf3 003e
00000060: 526c 20be 937f 1a3e e1a2 1fbd d05d 003c
00000070: a1e2 d9bd ab46 b33d b7ad ee3d 67c4 bfbd
00000080: 0c2c d33c 6435 46bd 08d5 20be cd1d acbd
00000090: 3959 adbd ac46 bc3d 9977 213e 8d78 0ebe
000000a0: 0ce1 953d c041 ce3d 79a3 0bbc 2aca 59bd
000000b0: 8ac8 09be 7cc7 35bd 5ee3 66bd 13d3 0b3d
000000c0: 67a3 ef3a 1a1f 99bd 9747 7bbc 2ffa 8e3d
000000d0: b07e 903d ca75 7a3d 88e2 6bbd 9beb a33d
000000e0: 6617 b13c 5eac aabd 7f98 acbd 28f4 d0bd
000000f0: fddd 43bd 9b84 86bd 73ab 6cbc 76e1 98bd
00000100: e75e a6bc a9f7 3cbd 0fba ebbb f39b 07be
00000110: c403 b73d 1e76 ec3c 34b4 19b7 c985 26bd
00000120: 3c44 82bc acf2 34ba acae b3bd cd1f de3d
00000130: c78f 283e 2c04 80bd b0f6 99b9 8962 19be
00000140: 7200 ea3c ee37 21be bfb2 1f3e 8e02 eebd
00000150: 6b6f 05bd 8e13 1dbc e999 9ebd e2b5 d93d
00000160: c143 ad3d 26e5 b03d 9afe 193d 848a 173e
00000170: 4fd4 1bbe bea3 6c3d f141 f739 85cf faba
00000180: 96fd 003e 3de5 38bd 3d8b 1e3d effb 133d
00000190: 07e3 b43d c86a 893d 2d56 b03d 4104 b73d
000001a0: a518 143e 9f71 763b 9fa2 b53b 93dd 0abe
000001b0: 9307 fa3d 2d0a a63d 299d 0dbd b277 a1bd
000001c0: c8da 0bbd 09b9 17bd 2f58 b73d 0235 003d
000001d0: 1e98 8cbb a332 90bd c6ac 623d 92e6 5f3d
000001e0: 8300 15be 13cb 08be 9f39 debc 0b8c 4539
000001f0: 4430 5fbd 5a18 953c 4d0a d43d e448 78bd
00000200: 29e1 953c 1137 b1bc 5330 9cbd 6d65 873d
00000210: a909 10bc 4925 513c 4e43 fbbd 63bd f4bd
00000220: 1e36 b73d bf0d d83d f23b 3f3d e6d0 0abe
00000230: 04b4 693d 7f2f b2bd 3793 16bc 8761 183e
00000240: 4e90 0f3d 4a66 96b8 6872 ea3c 0694 4fbd
00000250: 28cc 673c 2cf1 a9bd db79 d9bd c9fb 5a3e
00000260: 92df 5dbd bbe1 1fbd ebd0 94bd 8ce9 833d
00000270: dfea a1ba 87c4 0b3e 825e 5bbd 23f9 bc3d
00000280: a880 41bd ad89 d33d 6aa6 e8bc cb16 94bb
00000290: 7891 9b3d c93e 163e b1b8 36bc f475 1fbd
000002a0: 95b4 f23d b193 233d cc80 a7bd 8ebc d83d
000002b0: 90b8 d23c 81b0 a03d 127c 883b 23c6 aebc
000002c0: 5f29 16be 0dcc f03c 4955 b2bc 0ecb 14bb
000002d0: 666c b83c 71ba 053e 491c b1bd 32bc 4fbd
000002e0: 493d 53bd 8504 04bd 9d71 83ba 703c b73d
000002f0: ca4c 26bb f944 7e3d 7a59 7abc 041e 6cbc
00000300: c971 873b 6a8e 37bc 3dea b93d e97d b73d
00000310: 643c d5bb 5b3f 9b3d f81f febd a2bd 8cbd
00000320: 3bd5 1b3b 6da3 503d 068a 4cbd a62b c4bd
00000330: 7de0 14bd d53f 1ebe 43f5 17be 342c 793d
00000340: 2256 053e c13a 1b3e 7c3f 52bb ea89 4d3c
00000350: b2d5 093e dddb 37be 3334 b0bd d431 22bc
00000360: a3a7 f7b8 b556 05be eff3 a13d f4fe c2bd
00000370: 452d 013d d6c9 5ebd d46f 47be 1d10 8e3b
00000380: 91f0 e4bc afda 68bd 5de2 ba3d c7da 9c3c
00000390: 1605 923c 2720 463d c230 09bd 09d1 a3bc
000003a0: 0934 d6ba ed03 923d e5ec a93d b87a c8bb
000003b0: 99f2 98bc 8334 f23b 37f9 893c d7bc d0bc
000003c0: 9ff4 003e a12b 19bd 0069 03be cc8d 4c3d
000003d0: d327 e03d dabc 07be 2d17 b338 5139 1ebd
000003e0: 225a 5dbd b4f7 7b3d 4dec 84bc 83a0 c6bd
000003f0: 2238 95bd 06fe e438 7a22 4a3d 039c 3dbe
0.07998419 0.00024049089 -0.17103542 -0.05911525 0.12094814 0.11278967 0.076814644 -0.010748752
0.112239234 -0.0045836437 0.020962918 0.06109647 -0.052057914 0.02339961 -0.0072819158 -0.08990058
0.14221142 -0.01986214 0.13912678 0.0016582237 -0.102754794 0.11328693 -0.0034741221 0.12592904
-0.15666321 0.15087728 -0.038973693 0.007834867 -0.10638929 0.08753713 0.11654227 -0.09363633
0.02577784 -0.04839076 -0.15706265 -0.084041215 -0.084642835 0.09193167 0.15768279 -0.13913174
0.07318315 0.100711346 -0.008522862 -0.053171314 -0.13455406 -0.044379696 -0.056369178 0.034136843
0.0018282951 -0.07476635 -0.015336893 0.069813125 0.07055414 0.06114749 -0.057589084 0.080039226
0.021617603 -0.08333658 -0.08427524 -0.10202819 -0.047819126 -0.06568261 -0.014445174 -0.07464878
-0.020308925 -0.046134625 -0.007193811 -0.13243084 0.08936265 0.028864916 -9.1614675e-06 -0.04065493
-0.015901677 -0.0006902616 -0.087735504 0.10845909 0.16461097 -0.06250796 -0.0002936623 -0.14978994
0.028564665 -0.15743992 0.1559553 -0.11621581 -0.03257696 -0.009587182 -0.077442 0.106303945
0.08460189 0.086374566 0.037596323 0.14798933 -0.15217708 0.057773344 0.0004716064 -0.0019135332
0.12596735 -0.045140494 0.038707007 0.036128934 0.088323645 0.0670982 0.08610187 0.08936358
0.14462526 0.0037604345 0.0055430676 -0.13561086 0.12208476 0.081074096 -0.034573708 -0.07884158
-0.034144193 -0.037041698 0.089523666 0.031300552 -0.0042905947 -0.07040908 0.05534055 0.05466325
-0.14550976 -0.13358717 -0.027127085 0.00018839554 -0.05448939 0.018200088 0.10353527 -0.06061639
0.018295841 -0.021632703 -0.076264046 0.06611142 -0.008791366 0.012765237 -0.12268697 -0.11950185
0.08945869 0.10549497 0.046688028 -0.13556251 0.057056442 -0.087004654 -0.009190372 0.14880954
0.03504973 -7.17161e-05 0.028619006 -0.050678276 0.014147796 -0.08297953 -0.10618945 0.21385111
-0.05416829 -0.039033633 -0.072664104 0.0644103 -0.0012353322 0.13649188 -0.053556927 0.092272066
-0.047241837 0.10328994 -0.028399665 -0.0045193187 0.07596105 0.14672388 -0.011152432 -0.03893085
0.118508495 0.03993577 -0.08178863 0.10582839 0.025722772 0.078461654 0.004165181 -0.021334713
-0.1466422 0.029394174 -0.021769183 -0.0022704038 0.022512626 0.13059403 -0.08647973 -0.050716586
-0.051572118 -0.032230873 -0.0010028366 0.089470744 -0.002537536 0.062077496 -0.015280122 -0.014411453
0.0041334373 -0.011203388 0.090778805 0.08959562 -0.0065074433 0.075804435 -0.12408441 -0.06872107
0.0023778218 0.050937105 -0.049936317 -0.09578638 -0.0363469 -0.15454037 -0.14839654 0.06083317
0.13021138 0.15159132 -0.0032081297 0.012545088 0.13460425 -0.17954965 -0.08603706 -0.009899575
-0.000118091026 -0.13021357 0.07907855 -0.09521285 0.031537313 -0.054391704 -0.19476253 0.004335417
-0.027946742 -0.056849178 0.091252066 0.01914729 0.01782469 0.048370507 -0.033493765 -0.019997137
-0.0016342412 0.07129655 0.08297137 -0.006118145 -0.018670367 0.007391514 0.016842468 -0.02548067
0.12593316 -0.037395123 -0.12833023 0.049939916 0.10945096 -0.13255635 8.539702e-05 -0.03862888
-0.054041035 0.061515525 -0.016225958 -0.09698584 -0.07286097 0.00010919203 0.049349286 -0.18516545

MLP.2.bias f4 [128]
00000000: 8828 4fbd 87b7 93bc eff1 39bc 0b83 b63c
00000010: 30da 74bc e8fc adbb 608f 823d e8d2 103d
00000020: f539 2abc 8bc4 103d 119b 5bbd e518 dfbd
00000030: 0986 98bc e5a2 373b 8764 c7bc 0989 433d
00000040: ec70 9bbc 4d6e 233c 1d75 8dbc eb5f e3bd
00000050: 6b8b 3a3a 4f81 8fbc 9a16 643b 43b5 fc3b
00000060: 9faa 2fbd e77e 6ebd d855 f1bc d7a5 62bd
00000070: 467a 693d 4fe6 6c3d d80c 05bc 67f5 37bd
00000080: 74ca 51bd 9139 b1bc dc14 cdbb 5870 1d3c
00000090: 9760 ddbb 3396 aabc 0111 67bc 2cf3 f83c
000000a0: eaf3 9dbc 70bc f83c f3a1 dabc 19fb 9fbd
000000b0: d51a 1d3d 4028 673d 4012 523b 0d58 4f3c
000000c0: 458d 803d c985 16bd 80a7 2dbd 4ce7 b0bc
000000d0: 49bb 73bd b8c3 c6bc 5c7b b9bc f2f2 8c3c
000000e0: d79f 893d 41cd b4bc 4f0e 61bc 0100 a0bd
000000f0: 05a6 0fbd af4e 8cbd 01b5 4f3d 76af 10bd
00000100: 878b 65bc baa2 39bd 8b80 93bc d75b 7abd
00000110: 67f0 18bc 93c8 853d cb22 613d 8149 283c
00000120: def0 61bd 2dba a9bc 0379 98bc fe5c bfba
00000130: 0bba b6bc b2ab f9bc 0868 45bd 07c9 06bc
00000140: 511c 27bc 41f2 823d 112e cabc 61f9 8ebd
00000150: e98d 7d3c 7f28 d0bc 476b 25b8 4187 713a
00000160: 92b9 5fbd df23 99bc 6a58 963d 0dc1 0a3d
00000170: f609 9d3d 5207 2cbd 7719 8c3c 5516 dc3b
00000180: e5cb d9ba e576 ebbc a676 a4ba 6429 043c
00000190: 052a a53c 2a65 01bd a32d 973d 943c 80bc
000001a0: b574 313d 657e 323c 7136 9dbd c7cb 8f3c
000001b0: c000 75bc b41a 813d 486f 5a3c a514 d43d
000001c0: 9b1a b73c 5be3 29bd 031a 9b3d 5520 b53c
000001d0: c2dc f13c de7f e93c b4d6 b83b ef6e 9cbc
000001e0: f339 73bb 95f1 cabb ac9b 05bc b8ce 093d
000001f0: 5598 d7bc a58b e538 6c4a 263c e9e3 7abd
-0.050575763 -0.018031849 -0.011349185 0.022279283 -0.014944598 -0.00530969 0.06375003 0.035357386
-0.010389795 0.035343688 -0.05361468 -0.1089342 -0.0186186 0.0028020677 -0.024339927 0.04773811
-0.018974744 0.009975028 -0.017267758 -0.11102279 0.0007116112 -0.017517714 0.003480351 0.007712038
-0.042887326 -0.058226492 -0.029459879 -0.05533394 0.057001375 0.057836827 -0.008120738 -0.04491177
-0.051218465 -0.021633895 -0.00625859 0.009609304 -0.006755899 -0.020823574 -0.014103175 0.03038939
-0.019281346 0.030363292 -0.026688552 -0.07811565 0.038355667 0.05643487 0.0032054335 0.01265527
0.06276945 -0.03674868 -0.04239607 -0.021594666 -0.05950478 -0.024263248 -0.02264183 0.01720569
0.0671994 -0.022070529 -0.013736322 -0.07812501 -0.035070438 -0.06850945 0.05070973 -0.035323583
-0.014010317 -0.045321204 -0.01800563 -0.06112274 -0.00933466 0.06532397 0.05496482 0.010271431
-0.05516135 -0.020718658 -0.01861239 -0.0014599857 -0.02230551 -0.030477379 -0.048194915 -0.00822664
-0.010199622 0.063938625 -0.02468017 -0.06981159 0.015475729 -0.025409935 -3.9438975e-05 0.0009213575
-0.054620333 -0.018693862 0.073410824 0.033875514 0.076679155 -0.04199917 0.017101986 0.0067165294
-0.0016616551 -0.028743217 -0.0012547567 0.008066509 0.020161638 -0.03159062 0.073817514 -0.015653886
0.04332419 0.010894393 -0.076763995 0.017553223 -0.014953792 0.06303921 0.013332196 0.103555
0.022351554 -0.04147659 0.07573321 0.022110144 0.02952421 0.028503355 0.005640829 -0.019095866
-0.0037113398 -0.0061933496 -0.008154791 0.033644408 -0.026317755 0.00010945582 0.0101495795 -0.06125251
