SUGRL/checkpoints/ogbn-mag_weights.pth (torch, 528415 bytes, 4 tensors)

MLP.0.weight f4 [512, 128]
0.019306783 0.042238273 0.03744561 0.1438577 -0.024771545 0.24123035 -0.09403245 0.024309397
-0.11526809 0.03994309 -0.04365441 -0.055901136 0.06740368 -0.09749442 -0.0366498 -0.037250694
-0.056481574 -0.009087819 0.003403716 -0.08241192 0.019094696 -0.08774828 -0.06721851 0.103480995
-0.16034663 0.026613878 0.05977061 -0.078556314 0.16919392 0.00091910234 -0.024964588 0.08628552
0.048413258 -0.01458837 -0.020658834 -0.042798895 0.070205696 0.0027952702 -0.054552797 0.031068357
0.010685262 0.05587692 0.10517722 -0.11359214 0.06438418 0.020600768 -0.0072348868 -0.040578112
0.10288751 0.07030609 -0.021006817 0.052380245 0.088237725 -0.108287536 0.06664399 -0.0148071805
0.014879879 0.010868442 0.072391786 0.16693565 0.11091313 -0.07309341 0.20052898 0.11491537
-0.03725346 0.12988341 0.041443106 0.11092997 0.019076288 0.03571523 -0.0792746 0.0039048735
0.087841704 -0.09051579 -0.2124027 0.039863743 -0.011140843 -0.004933749 0.112109534 -0.15933232
0.017934067 0.003943125 0.049769502 -0.121553846 -0.09059082 -0.0016459527 0.06653051 -0.008512558
0.05810095 0.04908747 0.01425466 0.027685575 0.0066438545 0.1132329 0.25456184 0.0466809
0.08136471 0.09766999 -0.04336036 0.04681024 0.062772326 0.054266274 -0.009303861 -0.1143839
-0.028819196 -0.007922951 -0.10207926 0.042702965 -0.0250994 -0.14765711 -0.08219411 0.09508742
-0.062414736 0.026749853 -0.036452938 -0.054426562 0.10072254 0.13883163 -0.11256546 0.06766929
-0.039291315 -0.06348183 -0.030639498 0.06877088 0.032614037 0.0077640284 -0.071671255 0.04790615
-0.061105072 -0.24057807 -0.1336667 -0.13405576 0.007979939 0.07526583 -0.0022388396 0.003543177
0.07072466 0.004099604 -0.1519907 -0.11869966 -0.0058934037 0.07529486 0.048513845 0.1377645
0.20062897 0.04560402 0.10440239 -0.021743555 -0.050441306 0.15987659 -0.09963959 0.18110736
0.035506245 0.029505936 0.029545896 -0.03931776 0.052058466 0.17165805 -0.08048056 -0.13094692
-0.15602188 0.06361388 0.10269583 -0.029466232 -0.006648976 -0.06859863 -0.0066675786 -0.02999462
-0.04104234 0.13812007 0.026296737 -0.119117714 -0.12937304 -0.098899774 0.034259796 -0.12436509
0.026416928 0.057779517 0.06857057 0.0057203346 -0.033764455 -0.049243115 -0.05393278 -0.07436787
0.027131949 -0.017176086 0.114915185 0.086545914 0.10018525 0.002056761 -0.051793464 0.096074805
0.06332575 0.09860512 -0.13805489 0.11990637 0.06811373 -0.06849749 0.11303132 -0.025745956
-0.015460994 -0.06272639 0.13845524 0.038023062 0.02454082 0.14702445 -0.071314014 0.16142802
0.06260194 -0.11190078 0.09598515 -0.044129737 0.046109457 0.060426153 0.016217364 0.028563652
0.065360844 -0.11937401 0.04533555 0.00026733245 -0.023439914 -0.086085856 -0.1759003 0.059135024
-0.12390146 0.04109449 -0.020591294 -0.0039996547 -0.11715787 0.116882585 -0.036921855 -0.052606598
0.057094723 -0.08456363 -0.045495044 -0.1486193 -0.06805339 0.081378706 0.0012878516 0.1524499
-0.055370003 -0.114929065 0.09061044 0.0060821297 0.07658534 -0.34385005 -0.04152209 -0.025366543
-0.05298424 0.0026182365 -0.0099415975 -0.09372076 0.13875663 0.075659685 0.028616784 -0.036346328
00000000: 4229 9e3c 0a02 2d3d 9160 193d 6f4f 133e
00000010: b2ed cabc 1705 773e 1694 c0bd 8024 c73c
00000020: ad11 ecbd 5e9b 233d f7ce 32bd 97f8 64bd
00000030: f10a 8a3d 28ab c7bd 1a1e 16bd 2f94 18bd
00000040: 3959 67bd 13e5 14bc e110 5f3b 95c7 a8bd
00000050: 7b6c 9c3c 5fb5 b3bd dca9 89bd d8ed d33d
00000060: e831 24be 5905 da3c 07d2 743d 22e2 a0bd
00000070: 2c41 2d3e eaef 703a 8982 ccbc 76b6 b03d
00000080: fb4c 463d 0f04 6fbc b73c a9bc e54d 2fbd
00000090: 01c8 8f3d da30 373b c172 5fbd 1183 fe3c
000000a0: 3d11 2f3c 33df 643d 2867 d73d ffa2 e8bd
000000b0: dadb 833d f1c2 a83c a112 edbb 3c35 26bd
000000c0: b0b6 d23d a4fc 8f3d 7d16 acbc ab8c 563d
000000d0: fbb5 b43d dbc5 ddbd a57c 883d d199 72bc
000000e0: bcca 733c 8d11 323c 2542 943d 2ef1 2a3e
000000f0: 6c26 e33d ffb1 95bd 7857 4d3e c058 eb3d
00000100: 1697 18bd 2800 053e 3fc0 293d 412f e33d
00000110: e045 9c3c 224a 123d b95a a2bd e8e8 7f3b
00000120: 5ae6 b33d 5860 b9bd 1880 59be 2a48 233d
00000130: 1588 36bc 49ab a1bb af99 e53d 0328 23be
00000140: 77ea 923c 5435 813b 1bdb 4b3d 39f1 f8bd
00000150: ae87 b9bd 02bd d7ba 2641 883d 4278 0bbc
00000160: 43fb 6d3d f10f 493d 618c 693c dccc e23c
00000170: b1b4 d93b a7e6 e73d ee55 823e 7934 3f3d
00000180: 8ba2 a63d 3407 c83d a29a 31bd 18bc 3f3d
00000190: c78e 803d 5046 5e3d 396f 18bc 1b42 eabd
000001a0: 3c16 ecbc 44cf 01bc ee0e d1bd 4ee9 2e3d
000001b0: 429d cdbc 6d33 17be 6355 a8bd 31bd c23d
000001c0: 98a6 7fbd 8222 db3c ad4f 15bd 63ee 5ebd
000001d0: 9e47 ce3d e129 0e3e b888 e6bd 3296 8a3d
000001e0: eeef 20bd c302 82bd afff fabc bfd7 8c3d
000001f0: 4c96 053d 6469 fe3b 61c8 92bd 3d39 443d
00000200: 5049 7abd 195a 76be ecdf 08be ea45 09be
00000210: 4abe 023c f924 9a3d 7fb9 12bb a534 683b
00000220: 17d8 903d f955 863b 73a3 1bbe cf18 f3bd
00000230: 741d c1bb 3134 9a3d 74b6 463d 2312 0d3e
00000240: ae71 4d3e 48cb 3a3d ecd0 d53d 8a1f b2bc
00000250: 8b9b 4ebd b0b6 233e d70f ccbd 3574 393e
00000260: ff6e 113d 6fb6 f13c 3c0a f23c a90b 21bd
00000270: 423b 553d 21c7 2f3e fed2 a4bd f316 06be
00000280: 33c4 1fbe fe47 823d 3152 d23d 2b63 f1bc
00000290: a7df d9bb 707d 8cbd b47b dabb 47b7 f5bc
000002a0: 031c 28bd 596f 0d3e 416c d73c fdf3 f3bd
000002b0: 5e7a 04be f78b cabd 0054 0c3d 20b3 febd
000002c0: 5068 d83c 37aa 6c3d ba6e 8c3d a571 bb3b
000002d0: 994c 0abd 26b3 49bd 9ee8 5cbd 2f4e 98bd
000002e0: d243 de3c ddb4 8cbc a758 eb3d fc3e b13d
000002f0: ed2d cd3d b9ca 063b 6225 54bd dec2 c43d
00000300: eeb0 813d 7bf1 c93d 435e 0dbe 7991 f53d
00000310: 367f 8b3d 6948 8cbd f77c e73d 2fe9 d2bc
00000320: 1c50 7dbc b276 80bd 36c7 0d3e 12be 1b3d
00000330: d409 c93c 948d 163e 150d 92bd 634d 253e
00000340: 7235 803d 3c2c e5bd dd93 c43d 62c1 34bd
00000350: 45dd 3c3d 6a81 773d 47da 843c 52fe e93c
00000360: e8db 853d 5c7a f4bd c5b1 393d c128 8c39
00000370: 1005 c0bc c84d b0bd 351f 34be 9137 723d
00000380: 0cc0 fdbd b252 283d 13af a8bc 890f 83bb
00000390: 77f0 efbd 2360 ef3d 5f3b 17bd 047a 57bd
000003a0: 28dc 693d b22f adbd 0359 3abd a82f 18be
000003b0: 935f 8bbd e1a9 a63d 21cd a83a d41b 1c3e
000003c0: a8cb 62bd ee5f ebbd f791 b93d 9a4c c73b
000003d0: c6d8 9c3d 1d0d b0be 1113 2abd 7fcd cfbc
000003e0: 0106 59bd b896 2b3b 15e2 22bc abf0 bfbd
000003f0: 3816 0e3e 77f3 9a3d bf6d ea3c e3df 14bd

MLP.0.bias f4 [512]
0.05056429 0.06816456 0.061409213 0.073987454 0.07590383 0.08053523 -0.05933605 0.067953005
0.06280806 0.06835828 0.05004516 0.051796477 0.057079274 0.060735088 0.016444305 0.060825907
-0.11560384 0.02980029 0.062199116 0.044096418 0.023810368 0.06652865 0.08905199 0.060208652
0.06474848 0.022780126 0.06803948 0.08659494 0.057538636 -0.025229568 -0.076669365 0.07255095
0.06258126 0.03599582 -0.045010928 0.03867804 0.040659178 0.03617884 0.068852626 0.05830753
0.0644687 0.06637012 0.050040472 0.08135407 0.08387137 0.085786946 0.06175824 -0.051621895
0.032622408 0.06815433 0.026009493 0.024092868 0.03439184 0.030347673 0.07235364 0.09655481
0.028177392 -0.056076705 0.06957451 0.06221079 0.04594992 0.08199994 -0.0148624405 0.094228916
0.08976742 0.0302137 0.07585625 0.097390525 -0.0068469127 -0.057436135 -0.07276796 0.06063228
0.085022874 -0.0037150802 0.05090609 0.065005824 -0.11345733 0.08729067 0.084168844 0.060867745
0.086714976 0.03494411 0.060530122 0.07316374 0.059450734 -0.007453888 0.061311588 0.06670503
-0.0062604127 0.06909071 -0.06350102 -0.064716436 0.03281444 0.03644342 0.03701822 0.06474303
0.04192127 0.06302038 0.047427163 0.0009424282 0.06418476 0.08125433 0.07078394 -0.0022958205
0.080989376 0.09379314 -0.019891245 0.03591845 0.07214642 0.024171134 0.08671579 0.053740103
0.04339807 0.08382115 0.039418224 -0.098569736 0.016983299 0.12482479 0.08069405 0.042877328
0.0033615325 -0.057722177 0.08870301 0.057840064 0.07293217 0.06524094 0.07518977 0.078589775
0.07119813 0.08145057 0.06029764 -0.0070919795 -0.051453654 0.090012416 0.03742417 -0.039142516
0.057466935 0.07308641 0.06525468 0.033989586 0.032420777 0.026574569 0.063350186 0.061974656
0.08300568 0.06775108 -0.04777763 0.040470872 0.04610252 0.05269226 0.06796413 0.039001487
0.07010319 0.07592941 0.053339258 0.04894265 0.026468918 0.06625542 0.054147243 -0.05024803
0.03324696 -0.0010803661 -0.05978749 0.06780775 0.030523732 0.045959495 -0.12082442 0.058177214
-0.013734422 0.06274864 0.06142172 0.0024292544 0.0431834 0.06704378 0.051713936 0.057873454
-0.019858986 0.075435326 0.06261956 0.06687909 0.08260756 0.057013623 0.07811429 0.017334204
0.06815992 -0.0030271846 0.07872757 -0.09126249 0.035958417 0.050690975 0.07996041 0.063761525
0.08079688 0.037068516 0.10178225 0.025185073 0.05837701 0.07030894 -0.057587083 0.052869376
0.067394294 0.09167927 0.0793067 -0.032114465 0.0781265 0.06714076 0.073980965 -0.021777542
0.050949436 0.04933813 -0.030337604 0.026040848 0.014643286 -0.019391308 0.058524035 -0.028486863
0.064696975 0.06567565 0.008723607 0.04277887 -0.036194574 -0.016238991 0.021725317 0.03024294
-0.0372306 0.08152682 0.06438596 0.07439432 -0.032830156 0.06477148 0.08043387 -0.099426545
0.07037851 -0.105448455 0.060013216 0.068287164 0.052686937 0.010404665 0.06574803 0.05696069
0.042465366 0.070104465 0.009397367 0.07245861 -0.0903872 0.02702404 0.029368808 0.08130657
-0.010556914 -0.05875572 0.056380853 -0.09651593 0.06609607 0.058801364 0.06207237 0.061679807
00000000: 801c 4f3d dc99 8b3d 3a88 7b3d bc86 973d
00000010: 7873 9b3d a8ef a43d 5c0a 73bd f22a 8b3d
00000020: 83a1 803d 6dff 8b3d 27fc 4c3d 8b28 543d
00000030: f5cb 693d 5bc5 783d 35b6 863c 9624 793d
00000040: b5c1 ecbd bd1f f43c 80c4 7e3d 729e 343d
00000050: f60d c33c 2c40 883d e460 b63d 599d 763d
00000060: da9a 843d 639d ba3c 4858 8b3d b058 b13d
00000070: a2ad 6b3d 3dae cebc d404 9dbd 9895 943d
00000080: 9b2a 803d 5a70 133d 615d 38bd dd6c 1e3d
00000090: 3d8a 263d 4330 143d 9b02 8d3d e0d3 6e3d
000000a0: 2a08 843d 0fed 873d 3df7 4c3d f69c a63d
000000b0: c1c4 ab3d 11b1 af3d 35f6 7c3d 7b71 53bd
000000c0: 139f 053d 7f94 8b3d dc11 d53c 685e c53c
000000d0: 75de 0c3d af9b f83c 252e 943d 87be c53d
000000e0: 46d4 e63c b0b0 65bd 157d 8e3d bed0 7e3d
000000f0: fc35 3c3d 96ef a73d 9881 73bc 17fb c03d
00000100: fbd7 b73d b982 f73c 865a 9b3d af74 c73d
00000110: 115c e0bb 2742 6bbd 5e07 95bd 8e59 783d
00000120: 7920 ae3d b478 73bb e782 503d c621 853d
00000130: 515c e8bd 73c5 b23d b760 ac3d 7550 793d
00000140: 9f97 b13d 8e21 0f3d 6fee 773d dfd6 953d
00000150: 9d82 733d bf3f f4bb dc21 7b3d a69c 883d
00000160: 2624 cdbb 6e7f 8d3d d30c 82bd 0d8a 84bd
00000170: 6f68 063d b245 153d 6ba0 173d fe97 843d
00000180: a3b5 2b3d d410 813d fc42 423d 490d 773a
00000190: 4d73 833d ac68 a63d 2cf7 903d 7a75 16bb
000001a0: c2dd a53d 9e16 c03d f7f2 a2bc 3a1f 133d
000001b0: 81c1 933d 8b02 c63c 0c98 b13d 951e 5c3d
000001c0: 2dc2 313d 6caa ab3d 0175 213d eede c9bd
000001d0: 8f20 8b3c 24a4 ff3d ec42 a53d 23a0 2f3d
000001e0: 284d 5c3b 176e 6cbd eca9 b53d b4e9 6c3d
000001f0: 765d 953d 0b9d 853d 18fd 993d adf3 a03d
00000200: 53d0 913d 8ecf a63d a8fa 763d d663 e8bb
00000210: 11c1 52bd 6e58 b83d 164a 193d e753 20bd
00000220: 7362 6b3d 54ae 953d 3fa4 853d aa38 0b3d
00000230: a6cb 043d e9b2 d93c bebd 813d 23d9 7d3d
00000240: e2fe a93d 14c1 8a3d 7ab2 43bd c9c4 253d
00000250: ffd5 3c3d d7d3 573d c730 8b3d 06c0 1f3d
00000260: 4392 8f3d e180 9b3d 447a 5a3d 1778 483d
00000270: 58d5 d83c ecb0 873d 80c9 5d3d e1d0 4dbd
00000280: f72d 083d 129b 8dba bae3 74bd cade 8a3d
00000290: e80c fa3c 0640 3c3d cb72 f7bd 3b4b 6e3d
000002a0: 5706 61bc 5c82 803d 5795 7b3d 2034 1f3b
000002b0: 14e1 303d 404e 893d fed1 533d b70c 6d3d
000002c0: 50af a2bc d67d 9a3d af3e 803d e8f7 883d
000002d0: 272e a93d 1e87 693d 63fa 9f3d 7600 8e3c
000002e0: 6e97 8b3d bb63 46bb ec3b a13d d4e7 babd
000002f0: 2249 133d 57a1 4f3d 49c2 a33d 6795 823d
00000300: d678 a53d 28d5 173d 3673 d03d ed50 ce3c
00000310: bb1c 6f3d 22fe 8f3d 6fe0 6bbd 8f8d 583d
00000320: 0506 8a3d 57c2 bb3d 8d6b a23d 758a 03bd
00000330: c900 a03d 1881 893d 5583 973d d166 b2bc
00000340: 5bb0 503d c716 4a3d 9186 f8bc 9e53 d53c
00000350: 65ea 6f3c 85da 9ebc e6b6 6f3d 485d e9bc
00000360: d97f 843d f580 863d 76ed 0e3c e538 2f3d
00000370: c340 14bd a207 85bc 4bf9 b13c 0bc0 f73c
00000380: 1d7f 18bd 89f7 a63d c9dc 833d 0d5c 983d
00000390: ea78 06bd e9a6 843d 83ba a43d 25a0 cbbd
000003a0: 9c22 903d 5cf5 d7bd 6bd0 753d 24da 8b3d
000003b0: 42ce 573d 5478 2a3c e7a6 863d 9d4f 693d
000003c0: 2af0 2d3d ee92 8f3d 6af7 193c 2e65 943d
000003d0: ed1c b9bd 8561 dd3c db96 f03c 0f84 a63d
000003e0: e8f6 2cbc d6a9 70bd 9cef 663d 25aa c5bd
000003f0: 605d 873d b3d9 703d 993f 7e3d f7a3 7c3d

MLP.2.weight f4 [128, 512]
-0.00060449186 0.10000687 0.082086034 -0.0171822 -0.041525204 -0.06365578 -0.00069364056 0.09336433
-0.010755242 0.075552806 -0.024720803 0.030782504 0.056961626 0.039998684 -0.065196656 -0.013288698
-0.033663705 0.08224644 0.044929497 -0.015520352 -0.048212707 -0.0071931803 -0.042667873 -0.106841795
0.025855597 0.065959126 -0.09228739 -0.024051376 -0.022732865 0.02640928 -0.048313566 -0.118930854
0.053344026 0.061997816 0.02567214 -0.017803667 0.07479689 -0.029306885 -0.03351293 0.10729119
0.038309112 0.022063738 0.037562255 -0.025349641 0.0088610845 -0.019220423 0.039229512 -0.0010032424
-0.010509344 0.10703925 -0.01578152 -0.043348785 -0.051087547 0.036869794 0.10947018 0.06307979
-0.0069256215 -0.000647344 -0.012969692 -0.04162933 -0.027033811 -0.030146752 0.00020002213 -0.09387576
-0.008001128 -0.1163499 -0.03426126 0.051530987 7.767999e-05 0.0002930208 0.0957804 0.065935135
-0.17291388 -0.103844054 -0.028182233 0.12606719 -0.04117403 0.047162272 0.08627309 0.038416885
0.012568347 0.07516434 -0.013743532 0.1295038 -0.028344056 0.00015728464 0.06831142 -0.12708935
-0.007284543 0.0036025355 0.036272295 0.08673436 -0.0012994738 0.057320263 -0.055728678 0.09824973
-0.11620338 -0.12028331 -0.109725215 -0.049474776 0.020760924 -0.047748685 -0.0063723056 -0.00013416835
0.11278897 -0.15032329 0.12957926 -0.058505867 -0.009684594 -0.078522004 0.08323976 0.1047287
0.08557347 -0.22346501 0.13634366 -0.11968016 -0.13322371 -0.065499574 -0.016649764 -0.07506279
-0.030243702 0.01385148 -0.13767345 -0.061371606 -0.13451755 0.042297736 -0.12823945 -0.019470133
0.09222708 0.0868239 -0.09418849 0.08986326 0.0021140669 0.031094259 0.04569347 -0.0010276241
-0.04723578 0.075564615 -0.017267484 0.049519204 0.06350141 0.0048248656 0.074802816 -0.09966015
0.0028885847 0.09117253 0.064281985 -0.07808128 0.010826027 0.06048638 0.021725232 0.005834032
-0.057847798 -0.0018209406 -0.044030264 0.08971228 -0.033479583 0.074931525 -0.0030322988 -0.025035458
-0.009379099 0.08159861 -0.072342545 -0.040553324 -0.05540911 -0.09640514 -0.11793139 -0.1361766
0.0314032 0.039540295 0.056503676 0.00185237 -0.10832109 0.017998971 -0.1161326 0.09676456
0.027088717 0.037992477 -0.068288416 0.054910418 -0.10285788 -0.08834593 -0.13369541 -0.27222526
-0.016216975 -0.014330625 -0.00031034814 0.09532746 0.14522673 -0.094123885 0.09153883 -0.020623505
-0.03246333 -0.016169563 -0.06455222 -0.011712816 -0.040167455 -0.13501294 -0.095632724 -0.012053069
0.01788244 0.024821242 0.0035754342 -0.00011234455 -0.12051456 -0.035850886 0.050031573 -0.10488477
-0.06910494 0.083958626 0.06217977 -0.034762964 -0.018738234 -0.0026408664 0.0008742889 0.053154644
-0.04402832 0.059111062 -0.054511618 -0.15121406 -1.7934131e-05 0.00010449816 -0.019798055 0.011709712
-0.037235335 0.05048276 -0.022482682 0.04680949 0.010660805 0.023909323 -0.11636531 -0.1070481
-0.00305372 -0.09204192 0.10444233 0.10853321 0.13508122 0.040040426 0.015087815 0.08400434
-0.11231345 0.034697298 0.08399463 0.035780326 -0.04837471 0.093076974 -0.0806084 -0.049538177
-0.10017685 -0.008620906 -0.045000527 0.060926024 0.030737614 -0.0723956 0.016866893 -0.0073005916
00000000: c376 1eba 67d0 cc3d b91c a83d afc1 8cbc
00000010: 5516 2abd f65d 82bd 6ed5 35ba cc35 bf3d
00000020: c136 30bc 6ebb 9a3d 4883 cabc 972b fc3c
00000030: 9850 693d a9d5 233d d385 85bd d7b8 59bc
00000040: f4e2 09bd d270 a83d fe07 383d 1349 7ebc
00000050: b07a 45bd c5b4 ebbb 82c4 2ebd dfcf dabd
00000060: 1ecf d33c 9415 873d 2c01 bdbd 6407 c5bc
00000070: 463a babc 4658 d83c 72e4 45bd 0592 f3bd
00000080: 447f 5a3d 6cf1 7d3d 614e d23c ffd8 91bc
00000090: 1d2f 993d fe14 f0bc db44 09bd 7cbb db3d
000000a0: 04ea 1c3d 03bf b43c e1da 193d 0daa cfbc
000000b0: 152e 113c 2674 9dbc 20af 203d 3b7f 83ba
000000c0: 622f 2cbc 6537 db3d 3f48 81bc 7f8e 31bd
000000d0: 2d41 51bd c804 173d e731 e03d fa2f 813d
000000e0: 53f0 e2bb 85b2 29ba d57e 54bc 8483 2abd
000000f0: 0376 ddbc 52f6 f6bc 08bd 5139 ef41 c0bd
00000100: 2a17 03bc db48 eebd 8955 0cbd 2812 533d
00000110: 21e8 a238 96a0 9939 8428 c43d 0009 873d
00000120: 5610 31be 31ac d4bd 6dde e6bc c217 013e
00000130: 1aa6 28bd 3a2d 413d f2af b03d 065b 1d3d
00000140: 78eb 4d3c c3ef 993d 8d2c 61bc a59c 043e
00000150: cb31 e8bc c6ec 2439 dce6 8b3d b623 02be
00000160: 2db3 eebb 8418 6c3b 4292 143d c9a1 b13d
00000170: 1b53 aaba a7c8 6a3d c143 64bd 2837 c93d
00000180: 0afc edbd 1957 f6bd 9db7 e0bd 10a6 4abd
00000190: d012 aa3c 2094 43bd c6ce d0bb 8baf 0cb9
000001a0: e7fd e63d 59ee 19be 6db0 043e d9a3 6fbd
000001b0: 22ac 1ebc 25d0 a0bd 9b79 aa3d 007c d63d
000001c0: 2541 af3d 03d4 64be ac9d 0b3e df1a f5bd
000001d0: cc6b 08be a424 86bd 1665 88bc 85ba 99bd
000001e0: a4c1 f7bc 51f1 623c 45fa 0cbe cb60 7bbd
000001f0: f8be 09be 6440 2d3d 3451 03be d47f 9fbc
00000200: 8de1 bc3d bbd0 b13d e5e5 c0bd 3b0a b83d
00000210: 288c 0a3b 63b9 fe3c 1329 3b3d 58b1 86ba
00000220: 4e7a 41bd 9fc1 9a3d 8a74 8dbc a6d4 4a3d
00000230: 070d 823d e819 9e3b 3832 993d 9f1a ccbd
00000240: 694e 3d3b aab8 ba3d 46a6 833d 14e9 9fbd
00000250: a65f 313c 91c0 773d 1df9 b13c 682b bf3b
00000260: d0f1 6cbd a1ac eeba 1459 34bd 12bb b73d
00000270: e321 09bd b375 993d 88b9 46bb 2917 cdbc
00000280: cbaa 19bc 2c1d a73d 5428 94bd 3e1b 26bd
00000290: aaf4 62bd 0f70 c5bd 0386 f1bd e171 0bbe
000002a0: a4a0 003d 01f5 213d 6670 673d 39cb f23a
000002b0: 73d7 ddbd 9472 933c eed6 edbd 7f2c c63d
000002c0: 28e9 dd3c 009e 1b3d ccda 8bbd bfe9 603d
000002d0: 27a7 d2bd b6ee b4bd 73e7 08be 1c61 8bbe
000002e0: 76d9 84bc ffca 6abc 39b6 a2b9 0b3b c33d
000002f0: 51b6 143e 06c4 c0bd b678 bb3d a0f2 a8bc
00000300: 45f8 04bd 0876 84bc f433 84bd 1ce7 3fbc
00000310: a186 24bd d540 0abe 17db c3bd 3c7a 45bc
00000320: 327e 923c eb55 cb3c d551 6a3b 859a ebb8
00000330: 56d0 f6bd 61d8 12bd e8ed 4c3d d4cd d6bd
00000340: e486 8dbd 80f2 ab3d 37b0 7e3d 9c63 0ebd
00000350: ed80 99bc 6312 2dbb 8930 653a afb8 593d
00000360: 0a57 34bd 711e 723d 9347 5fbd dcd7 1abe
00000370: 4171 96b7 0626 db38 882f a2bc 18da 3f3c
00000380: 1484 18bd 03c7 4e3d 9a2d b8bc 4fbb 3f3d
00000390: a8aa 2e3c 7cdd c33c f050 eebd 093c dbbd
000003a0: ec20 48bb 7980 bcbd dce5 d53d a946 de3d
000003b0: bb52 0a3e 6e01 243d e232 773c 780a ac3d
000003c0: 9804 e6bd c11e 0e3d 6005 ac3d 648e 123d
000003d0: 8f24 46bd 249f be3d 0416 a5bd 8be8 4abd
000003e0: 8529 cdbd b33e 0dbc 7952 38bd 918d 793d
000003f0: 73cd fb3c 2544 94bd 702c 8a3c cd39 efbb

MLP.2.bias f4 [128]
-0.0048216595 -0.0005840056 0.05471186 -0.013952539 -0.020435728 0.089269504 0.013182562 -0.039904058
-0.022993792 0.008839582 0.0062563107 0.004552188 -0.035704777 -0.0026403866 0.0057378937 0.042634536
0.00919796 -0.034370683 -0.024765233 0.07649105 0.014789523 0.061672535 0.022197682 0.03750267
0.001343664 0.014010145 0.020746488 0.00520205 0.018166287 -0.047205336 0.11261469 -0.053361706
0.00027718904 0.06580507 0.034157816 0.027821423 -0.102807656 -0.0306115 0.001262688 -0.032896865
0.049810335 0.039214954 -0.04946575 -0.074784406 0.02952467 0.041663647 -0.08831082 -0.0036692128
0.010542917 -0.052974608 0.13686803 -0.005644628 0.06664707 -0.009556893 0.108765416 -0.037059747
-0.13347922 -0.0046748184 0.065662175 0.013291509 0.05518246 -0.011542737 0.0100639975 -0.022622088
-0.02018086 0.05721001 -0.026873782 0.023621265 0.028515864 0.02676328 0.022375075 0.03658747
-0.011347563 -0.035329822 -0.05756341 0.06553576 -0.019893898 0.03649511 -0.019166715 -0.070355065
0.009792271 0.0051404466 -0.02432829 -0.04223792 0.01107827 0.012541852 0.039364193 -0.002205871
-0.04838781 0.016545337 -0.017198203 -0.0036048929 -0.025829492 0.074401364 -0.037361078 0.023915356
0.007421743 0.012878442 -0.0062903594 -0.00088533474 0.011565048 -0.061718952 0.014969341 0.07705139
0.076996185 -0.10042158 0.013176756 -0.102775194 -0.014714542 0.023399955 0.084852666 0.0012332789
0.06498983 -0.03522426 -0.020841315 0.06854084 0.03817793 0.027576102 0.036641918 -0.06183632
-0.0035230774 0.035963126 0.019838162 -0.009483664 0.013106895 0.004853843 0.029898526 -0.020694157
00000000: 03ff 9dbb f417 19ba 8b19 603d 3199 64bc
00000010: d468 a7bc eed2 b63d acfb 573c 7072 23bd
00000020: 7a5d bcbc e5d3 103c bd01 cd3b 852a 953b
00000030: 2c3f 12bd 560a 2dbb f104 bc3b 8da1 2e3d
00000040: 0ab3 163c 46c8 0cbd 75e0 cabc 57a7 9c3d
00000050: c14f 723c 579c 7c3d ead7 b53c 669c 193d
00000060: e21d b03a cf8a 653c 8af4 a93c f575 aa3b
00000070: 77d1 943c 625a 41bd 88a2 e63d ce91 5abd
00000080: af53 9139 cfc4 863d 11e9 0b3d c1e9 e33c
00000090: d28c d2bd f8c4 fabc c780 a53a ddbe 06bd
000000a0: ec05 4c3d dc9f 203d 999c 4abd 9128 99bd
000000b0: b9dd f13c 80a7 2a3d 4edc b4bd 2d77 70bb
000000c0: 33bc 2c3c e7fb 58bd 2227 0c3e 92f6 b8bb
000000d0: 427e 883d 8494 1cbc 67c0 de3d f6cb 17bd
000000e0: c7ae 08be 382f 99bb e479 863d a1c4 593c
000000f0: 0107 623d bf1d 3dbc 77e3 243c f551 b9bc
00000100: 5552 a5bc 0b55 6a3d 6826 dcbc 6281 c13c
00000110: 1a9a e93c ab3e db3c ef4b b73c bedc 153d
00000120: 21eb 39bc 01b6 10bd 9cc7 6bbd 9d37 863d
00000130: 87f8 a2bc e57b 153d 8403 9dbc 5116 90bd
00000140: c36f 203c 3171 a83b 1f4c c7bc ab01 2dbd
00000150: a281 353c 577c 4d3c 593c 213d 6090 10bb
00000160: 4c32 46bd 168a 873c 3fe3 8cbc 1140 6cbb
00000170: 5f98 d3bc be5f 983d ee07 19bd 23ea c33c
00000180: 1832 f33b 1a00 533c 5c1f cebb cf15 68ba
00000190: 547b 3d3c 03cd 7cbd f841 753c 1fcd 9d3d
000001a0: 2db0 9d3d d4a9 cdbd 52e3 573c cd7b d2bd
000001b0: 4315 71bc 43b1 bf3c 3cc7 ad3d f9a5 a13a
000001c0: 6319 853d 5047 10bd 68bb aabc 245f 8c3d
000001d0: 7660 1c3d 47e7 e13c d615 163d 1548 7dbd
000001e0: 6ee3 66bb 124e 133d a483 a23c 5f61 1bbc
000001f0: 4dbe 563c fc0c 9f3b c1ed f43c cb86 a9bc
